SOM/Weights_SOM_31points_Imax.npy (npy, 24928 bytes, 1 tensors)

array f8 [5, 5, 124]
0	0x3fe5f692632ec683	0.6863490998423035
1	0x3fe5f139880f7ac5	0.6856963784628866
2	0x3fe5e783139c0079	0.6845107443805453
3	0x3fe5bb32a468cb73	0.6791012965316966
4	0x3fe57f480e4ff1ee	0.6717872886215994
5	0x3fe54dfffe0b6dd0	0.6657714807328663
6	0x3fe5169e5b3376b9	0.6590110570211528
7	0x3fe47915710d4b3b	0.6397807319684498
8	0x3fe3a6175bf7b2d6	0.6140248104325916
9	0x3fe26e27e4554460	0.5759467563276637
10	0x3fe0bb14305c9eab	0.5228367752615289
11	0x3fdccc26cc45182f	0.4499604220221753
12	0x3fd83e730e78bd3a	0.37881161130185925
13	0x3fd49f41e6d04303	0.32222030201323565
14	0x3fd288c633b7f146	0.28959803629529224
15	0x3fd2940e1a459f80	0.29028656545278153
16	0x3fd482086f27fcde	0.3204365811834132
17	0x3fd89a447f2ffbdf	0.3844157449784102
18	0x3fdd74dc98ba20b0	0.46025767245056226
19	0x3fe0c616ebdef990	0.5241808516364461
20	0x3fe2406d2c136294	0.5703645573476757
21	0x3fe35c5adb01370a	0.6050237920223662
22	0x3fe423f872ed9b3b	0.6293909306230953
23	0x3fe4b2199f2f09c8	0.6467407330567818
24	0x3fe524e89aabc8cc	0.6607554455679518
25	0x3fe5562e320d36a5	0.6667700746126753
26	0x3fe58419894f7b84	0.6723754579396517
27	0x3fe5a68b04c4fb39	0.6765799611237987
28	0x3fe5aa813a278c68	0.6770635734395798
29	0x3fe5d327e5d5ebac	0.6820258606888863
30	0x3fe5c1cfd802352b	0.6799086779516633
31	0xbf428ed797301bd8	-0.0005663445175522154
32	0xbf45795d4a839022	-0.0006553369067003915
33	0x3f60141619a3037b	0.001962702907889411
34	0x3f1343fbe16d81d1	7.349228722609089e-05
35	0x3f3814b146794e4c	0.0003674443055150286
36	0x3f39d53e4bd1b118	0.0003941800203566422
37	0xbf36af8baa893fa6	-0.0003461566907718656
38	0xbf4079210454a23b	-0.000502720948735442
39	0x3f3bbb898475709b	0.0004231653915292095
40	0x3f619337fbd81eea	0.0021453946526469496
41	0x3f60ccb65c156a6f	0.0020507394516873704
42	0x3f66506908eb2986	0.002723889490288292
43	0x3f249809e82a9eb4	0.00015711899694291975
44	0x3f3196c761c2a31a	0.00026838653298937173
45	0xbf62793f25558c12	-0.0022550805394288076
46	0xbf4d0ee645d5a143	-0.0008867859248029925
47	0x3f4e89a9e45df6af	0.0009319381285732476
48	0x3f58977b18c0ff8e	0.0015009595981751753
49	0x3f4cfb8bcd254827	0.000884478819253913
50	0x3f51de497bb51cd2	0.0010905950174036516
51	0x3f4ef0fb4f5a7cbb	0.000944254598568415
52	0x3f5c9996224ceb54	0.0017456022407730991
53	0x3f22c69af36bed25	0.000143248000050147
54	0x3f55d577d74e718a	0.001332633049265205
55	0x3f45a755d163d2a1	0.0006608170540674704
56	0xbf472cd92e4bb426	-0.0007072506383259999
57	0xbf3afe26ab4ba22a	-0.0004118770987547061
58	0xbf3d8a266d2d1281	-0.00045073927065101416
59	0xbf61819921c5b5d7	-0.0021369925363419018
60	0xbf3fe8666e28c8ba	-0.0004868745874403547
61	0x3f314347dd91c5d8	0.0002634096577543688
62	0x3f41c75752059f00	0.0005425621384746726
63	0xbf477c77a262955b	-0.0007167419578492472
64	0xbf36f1e084885e82	-0.00035011035336782886
65	0xbf53237eda0c34f3	-0.0011681307589158057
66	0x3f33bb661485a8a0	0.00030108682815089584
67	0x3f4aba374365a17f	0.0008156556930716679
68	0x3f0692e34f5fe1dd	4.305607028238002e-05
69	0xbf00e8a5fd61b9a7	-3.225094376168034e-05
70	0x3f5b78e8b9618aa9	0.0016767761894917277
71	0x3f69bc062f1aa30a	0.003141414716840156
72	0x3f74529f5a032974	0.004961607424954873
73	0x3f6bc374f4184780	0.003389099526210637
74	0x3f696b2ea0c876a6	0.0031028662399553318
75	0x3f4c589bd3cd7431	0.0008650551677466032
76	0xbf53a2505546400d	-0.0011983665945969363
77	0xbf58cb5ffe08b338	-0.0015133321213724581
78	0x3f41d7b7c3f3e89f	0.0005445143978300044
79	0x3f6756ff76044293	0.002849101016302599
80	0x3f726059bd8101ae	0.004486418292856715
81	0x3f71785782b5b191	0.004265157545301782
82	0x3f404fbe657de302	0.0004977874441315091
83	0xbf40343021ac60a3	-0.0004945025460498974
84	0x3f5247f02d095627	0.001115784212875845
85	0x3f44621fda3804d8	0.0006220489053136114
86	0xbf56dffe6171a560	-0.0013961776910725518
87	0xbf5daeef4e89caee	-0.0018117272358295039
88	0xbf2450cc489e5673	-0.00015499585816474183
89	0x3f2aa3228a5b0e27	0.00020322605739951755
90	0xbf4522cdc2c5b782	-0.0006450180713224315
91	0xbf526728d5b68935	-0.0011232279565339235
92	0x3f3b60399bd088fe	0.00041772276364517014
93	0xbf4bf5d8311f8071	-0.0008532815575073139
94	0x3f456d2b8f676d3a	0.0006538832374717648
95	0x3f2b04b5b7b69271	0.00020613401634962975
96	0xbf52896b7c5920e6	-0.0011313962617283623
97	0xbf4e882fa5c55912	-0.0009317619947449027
98	0xbf4c091d9c25d56c	-0.0008555788593144604
99	0xbf65c3c9a0662a15	-0.0026568353670815095
100	0xbf6dc39b61f7265e	-0.0036333117311400506
101	0xbf7012cedf4ff6dc	-0.0039241867971193355
102	0xbf75ff1b00ddfda2	-0.005370240671140366
103	0xbf7975536c232a75	-0.006215406292720095
104	0xbf619c746841de1b	-0.00214979873458866
105	0xbf3b95d6a02301e7	-0.0004209183681602988
106	0x3f351c8efcd48cf6	0.00032213679226540616
107	0xbf4efaebc87a57c0	-0.000945439461207391
108	0xbf5c57c153331660	-0.0017299068393169734
109	0xbf5b2ba9042047cb	-0.001658358626177125
110	0x3f5b8b44b51177d3	0.0016811533899025912
111	0x3f598e110441c48c	0.0015597501924527217
112	0x3f64ac33bea8666b	0.002523518623331713
113	0x3f758ccf793f9e8b	0.005261240428786738
114	0x3f75a039d4aad350	0.005279756451888343
115	0x3f6e55f4f97182c1	0.0037030968338032937
116	0x3f6bf8746de9bbcd	0.003414370919294174
117	0x3f6d81bfcee3fd28	0.003601908326458809
118	0x3f55823d8463a9f8	0.001312789988839767
119	0x3f5428481fc38064	0.0012303070389450216
120	0x3f4c7c4cef1effad	0.000869309964620859
121	0x3f3ccd24840f1236	0.0004394735479389707
122	0x3f312422b79b252d	0.00026155326450501526
123	0x3f4a441e37ea5eca	0.0008015773344877905
124	0x3fe5f580c3ab6da0	0.6862186261818586
125	0x3fe5fff3e843543b	0.6874942337405011
126	0x3fe5e716e38980ce	0.6844591564258964
127	0x3fe5961c64a07038	0.6745740857472873
128	0x3fe5828c42a98882	0.6721860219952449
129	0x3fe52a7bdf065f6e	0.6614360195116953
130	0x3fe4f0d0f45d390a	0.6543965122926079
131	0x3fe43f6262ce4ff2	0.632737343769348
132	0x3fe39cd0458e1ddb	0.6128922804354561
133	0x3fe246f3d2dda09f	0.5711611860724765
134	0x3fe04f8cfb2a53c3	0.5097107797215518
135	0x3fdb1e1d20042364	0.4237129986436712
136	0x3fd5ad346823c6c2	0.3386965767850648
137	0x3fd1abf8a0dc4802	0.27612128933935776
138	0x3fcf15376d68c4dc	0.24283497659920428
139	0x3fcff5ea9d712586	0.2496922749290144
140	0x3fd2e70d193796b7	0.2953522440205733
141	0x3fd92ca8102d6ae1	0.39335061626267814
142	0x3fdf184c88c8a250	0.4858580909517842
143	0x3fe1931c49a844d8	0.5492078245753431
144	0x3fe303e431b0e060	0.5942250223661283
145	0x3fe4010989768982	0.6251266178917805
146	0x3fe49f6ed5e8360c	0.6444620302078774
147	0x3fe4ff8ae047e25d	0.6561941509708721
148	0x3fe551ca8a1e93b7	0.6662342736859647
149	0x3fe58f62089cb455	0.6737528007703398
150	0x3fe59fae2855eab7	0.6757422244839607
151	0x3fe5a2224226d42d	0.6760417263054755
152	0x3fe5c46cfe0bf8bb	0.6802277528620587
153	0x3fe5c592b6fab30b	0.6803678106130929
154	0x3fe5af3a2bf08e5c	0.6776400430866931
155	0x3f55e780a8111552	0.0013369327937352194
156	0xbf61fa3932083504	-0.0021945111368554277
157	0xbf4ac986752a711d	-0.000817480710185534
158	0xbf5797dafcf786db	-0.0014400137478038286
159	0x3f0633e1996c5786	4.2348215336370515e-05
160	0xbf4ce0f8f52c8eb6	-0.000881310998327631
161	0xbf50e6531bdea587	-0.0010314761743564786
162	0xbf11bac43a1ac499	-6.76328914106676e-05
163	0x3f5513f68d0b3727	0.0012864978527206779
164	0x3f227fda2f4c1df6	0.00014113939655423208
165	0x3f3e90e6efa929c5	0.00046640050974091864
166	0x3f632fdafdb251f3	0.002342155186463518
167	0xbf3274c2284fdede	-0.0002816175477273595
168	0x3f333cd06f8a567e	0.00029354180109329015
169	0xbf4b88388137d49e	-0.0008402133848323284
170	0xbf06bd0a4c9cf433	-4.337012940289937e-05
171	0x3f4e68501d9fdd0d	0.0009279624166528569
172	0xbf51b4720845a1ef	-0.001080619201355156
173	0xbf51a7ecaa8526aa	-0.0010776339714361574
174	0xbf4cea00efbf9a94	-0.0008823875973547773
175	0xbf510c95652eccec	-0.0010405978143637707
176	0x3ecde62ee4229f41	3.564256787564393e-06
177	0xbf3198cbe397a51f	-0.0002685067916830697
178	0x3f469ad7e692501a	0.00068984548592477
179	0x3f318381d9d7fe46	0.00026723785580882
180	0x3f46fba9a9de3650	0.0007013872561729226
181	0xbf4f53ec0f460664	-0.0009560492167539178
182	0xbf3f53bc31e57875	-0.00047801346399534785
183	0xbec429a67caa1970	-2.403580741830429e-06
184	0xbf4edd19bbf7491f	-0.0009418845801809939
185	0xbf5823e5b26c99c3	-0.001473402322241677
186	0x3f4370c6fd0cca7d	0.0005932780860347788
187	0x3f309f3b63ac0f26	0.00025363159117851514
188	0xbf4f8b8b242fc6d4	-0.0009626798058645866
189	0xbf567a24a5c45c71	-0.001371894634820039
190	0xbf5cbf96e14a4475	-0.0017546628415952257
191	0x3f4a12ceb8905c51	0.0007956990604068935
192	0xbf414191d7d10fcc	-0.0005266153454006549
193	0xbf1f881536dee701	-0.000120283407993773
194	0xbf315eafc93708f0	-0.0002650431790379845
195	0x3f445bf17d0d3d3c	0.0006213120596871079
196	0x3f54e2a50e1ffb3f	0.0012747394434879514
197	0x3f5252a99a1f5f83	0.001118341090196013
198	0x3f58fefb38ecdd98	0.0015256360381509012
199	0xbf210903c3d05fc9	-0.00012996836622458503
200	0x3f31cf4d19b814a0	0.0002717555268819203
201	0xbf50844a6bb59ce4	-0.001008103062156534
202	0xbf5152134cff82ec	-0.0010571659549826707
203	0xbf53948c55c87206	-0.0011950846156941765
204	0x3f2af61b06b144d4	0.00020569877537693923
205	0xbf422507c8ef3d8f	-0.0005537307750901765
206	0xbf49ccca1d78c3e6	-0.0007873522653821768
207	0xbf41919ed11bf8b1	-0.0005361581299607924
208	0x3f3963f21a9862a2	0.00038742695559927144
209	0xbf5eee3befa95a11	-0.0018878541292416432
210	0xbf54783a9f66ff83	-0.0012493679511038365
211	0xbf60fb074272fc79	-0.0020728246487063365
212	0xbf32d39f476c4dc0	-0.0002872718682038443
213	0xbf55ae5c7fd0db2e	-0.0013233092606818697
214	0x3f26d6eec7f8d0dc	0.00017425217446177018
215	0xbf32ecaea3999ff2	-0.00028876556061740923
216	0x3f45c166b3d28fbf	0.0006639243580548389
217	0x3f32894d7c0c62ce	0.00028284208024013664
218	0x3f4eb1976c31ca39	0.0009366978996595061
219	0x3f15dc84bea44816	8.339462479892176e-05
220	0xbf065922ab01a7ff	-4.2625780566421516e-05
221	0x3f2c429659504a03	0.00021560750306599827
222	0xbf3da1a1ad621c2e	-0.0004521388740461066
223	0x3f3f50bd423e085a	0.0004778348977582163
224	0xbf523f00b683d743	-0.0011136538469691127
225	0xbf39e84dc2d4bb81	-0.00039531610930770156
226	0xbf57bb016fdde22f	-0.001448394206333369
227	0xbf6dd28f1e29d4ad	-0.0036404414434466265
228	0xbf72b7c5b599fd7c	-0.004569790174741125
229	0xbf72dd48c456c7f5	-0.004605564351935589
230	0xbf6bc68fea74d51c	-0.0033905802589752187
231	0xbf5862cfb4cec0ff	-0.0014884022122992333
232	0xbf33d39ea7e71af3	-0.0003025305121834708
233	0x3f5df8a386470100	0.0018292996329450362
234	0x3f6d0e2d480a26fe	0.0035467991259040535
235	0x3f68629715a13563	0.0029766989582983724
236	0x3f414442b8501a0c	0.0005269361287226228
237	0x3f676f36bbcb2839	0.002860648061276752
238	0x3f5f0aa5e14a7748	0.0018946285173692835
239	0xbf2115a9a81c7454	-0.00013034530643888048
240	0xbf43e1582c340326	-0.0006066971331223122
241	0x3f42885907ca3593	0.0005655703276531858
242	0xbf25b0f5347b2242	-0.00016549103951592382
243	0x3f36b946a9643050	0.0003467366708640495
244	0xbf3c07105448ecc8	-0.00042766712821036253
245	0x3f103468e395e0c5	6.181612197575781e-05
246	0x3f52d6c691202c39	0.0011498393182616375
247	0xbf3af183ad9e6609	-0.000411123893735516
248	0x3fe67c2dac45c9b6	0.7026584973048589
249	0x3fe65d6f81c9ee87	0.6989057097375316
250	0x3fe6593ccd72bed1	0.6983932507191303
251	0x3fe60aeb0a854395	0.6888327794532524
252	0x3fe601a3437c91b1	0.6876999204728717
253	0x3fe57bf2b44027f8	0.6713803787727093
254	0x3fe52e85101fdca3	0.661928683751189
255	0x3fe46f985c682f22	0.6386224560569398
