SOM/Weights_SOM_31points_Imax.npy (npy, 24928 bytes, 1 tensors)

array f8 [5, 5, 124]
00000000: b1c7 2a58 585b e73f 877b f919 cb4a e73f
00000010: 5d05 9f17 935a e73f f048 731c eb2a e73f
00000020: 26d9 5127 50e4 e63f ed78 25d6 1ec4 e63f
00000030: f363 e63b 9a72 e63f 91a3 7003 e914 e63f
00000040: cddb abaa 854c e53f f807 63fe c141 e43f
00000050: 17f9 7416 02af e23f 6374 7318 1227 e03f
00000060: 19b7 a598 ad8d da3f 81da 816a 51ce d43f
00000070: 9d32 0933 b90b d03f e6a3 b393 df9e cb3f
00000080: 5ee5 6cb5 c1c6 ce3f b86d b9ab 7fca d53f
00000090: e2df 1301 037f de3f 7f9c db0b a04b e23f
000000a0: b089 cb37 eae9 e33f 8536 e1d0 283b e53f
000000b0: 198b 196c 7acc e53f f01b 3766 9365 e63f
000000c0: adf4 1db3 8faa e63f 8411 cfb4 04fc e63f
000000d0: a00c 8b19 d9db e63f de7a 118c 4123 e73f
000000e0: 02c2 301a 1327 e73f 866e 5ee7 fe52 e73f
000000f0: 0d46 b89c 0836 e73f 5caa 12d6 c709 20bf
00000100: 1b13 7e82 b25f 2e3f a901 f661 170b 59bf
00000110: a536 a265 09c0 433f 463d 61f5 40d7 46bf
00000120: 7d94 a963 c896 55bf fbfc 8226 bb62 043f
00000130: fc99 b25a 76e9 423f 45d3 eb0e 87ca 133f
00000140: 342c 6440 4dd0 4abf 3703 b266 edd4 2e3f
00000150: 7fb1 3654 606c 52bf 64fa 5dfa 8b44 57bf
00000160: 3982 e3e1 16e3 32bf c732 f002 9282 1abf
00000170: a8e2 ce62 f99d 2a3f bcff 492c d3e8 48bf
00000180: cb1b b0ec bfe2 36bf 5e8f c956 c655 423f
00000190: 68d1 4059 379d 12bf 1d55 4f86 eb61 45bf
000001a0: 9bcb 99a6 7a02 4c3f cfaf 0b94 9fc9 1fbf
000001b0: a864 d5a8 b960 46bf 52ba 971a 6bd1 593f
000001c0: 916b 5962 c474 40bf b7ba 8fe8 b0fa 46bf
000001d0: 7e23 1225 a2f1 603f 1798 4b6f d4ec 303f
000001e0: 12c0 e2e7 94ff 4a3f dcf7 4e3e 0352 5ebf
000001f0: 29fb 0b2b bdb2 45bf c25a 75b2 b1d8 463f
00000200: bb22 ccec e726 593f df7a 9f84 d44c 383f
00000210: 6ead cc22 0be6 4dbf 73ab 2eb4 71db 483f
00000220: 2f8c 7d36 7ac3 4dbf 18f3 dc59 a077 523f
00000230: 24f5 5516 ed13 4b3f 68f6 cd30 0635 503f
00000240: 5d93 29e9 8987 403f f6d2 18c4 d83d 303f
00000250: 4cc4 78c5 1ed7 4e3f fb9a 590d 5a71 573f
00000260: 0658 0cfe 45f0 31bf b8cd 33ff 59c1 36bf
00000270: 6eb9 846a 9831 4e3f cd77 e702 55fb 13bf
00000280: cd69 e420 9000 2fbf caf4 b5db 32ac 11bf
00000290: 3158 5295 2f1e 46bf ed25 3c84 4700 52bf
000002a0: 7aec 93a4 2439 2dbf d259 e173 70c5 41bf
000002b0: b184 b19b 54c2 1c3f f33f aa64 3bea 44bf
000002c0: 963d 3147 47a2 4c3f 73d5 190f fbf0 4f3f
000002d0: 0b4e 2974 b3ef 103f d383 5c7a 7663 33bf
000002e0: d4ba ad0a e5ad 523f 05fe 28f8 8b4c 453f
000002f0: 4ce7 015b bbf0 493f 7d2e 63b1 c330 513f
00000300: c0ae 1fa6 6ed5 403f b47a ea9f 3a00 4cbf
00000310: 0184 907c 01e9 563f 6f82 0f86 229a 2cbf
00000320: 2a74 8a3f 1801 403f 1d67 3a12 ded6 393f
00000330: c975 8eb5 2c57 50bf 3763 d99a 19f9 fb3e
00000340: 3cb0 bd07 72e4 513f 0779 3b19 75b9 393f
00000350: 7156 6229 ca20 593f 6a89 771f 53f0 4e3f
00000360: 2832 a06b 1792 42bf 6ce5 1daf 7fc9 59bf
00000370: 7ad6 be8e fd9d 60bf 0e58 d63f c361 58bf
00000380: 1224 b800 5b32 43bf 88b1 9506 88b5 4abf
00000390: aef1 c20c 95ba 143f 85fd e9b3 2d65 45bf
000003a0: c1aa e49c 5783 5bbf 75e7 fadb 0ff4 66bf
000003b0: 4535 8956 736a 323f a7ad fe9b 0355 43bf
000003c0: 15c8 58b4 b9b8 333f eb1f cdaa 420b 4ebf
000003d0: 6175 9d32 7bb1 49bf 81c1 4a16 7489 32bf
000003e0: de18 ab64 57b5 e63f 3074 f25c 2cb3 e63f
000003f0: eb9c f9cc 409c e63f b6b4 54e4 b588 e63f
00000400: 8c3c 8f07 9d39 e63f b968 11db 7f1b e63f
00000410: edaf 892d 7acb e53f d704 111d 3a53 e53f
00000420: 55d6 6db3 4d89 e43f 860d 1fb9 a062 e33f
00000430: 5384 6763 f2a8 e13f c325 753d 1e48 de3f
00000440: 9978 2e3b d3fd d83f 23ec 1bd2 071d d43f
00000450: 9c06 4fe9 98d8 d03f 5d0e ec1b d4d1 ce3f
00000460: 39bb c0bc 9668 d13f 8d97 7ed3 ce91 d63f
00000470: 65cb 431e f27e dd3f 927c a2cc dd5c e13f
00000480: 9579 364d d5ee e23f ce66 2f15 f74e e43f
00000490: d55f 640e bbde e43f 355d 081d 6a8f e53f
000004a0: 7c9f 3c51 bde2 e53f e094 6ae9 414c e63f
000004b0: 7e9d c454 d63b e63f a0ef 12bd c674 e63f
000004c0: a4c0 6b41 bf94 e63f 7f58 5f90 849b e63f
000004d0: aec6 c769 628d e63f 2c08 a595 b701 5abf
000004e0: ffb1 08c3 8957 3fbf 5a80 8555 5ab1 3fbf
000004f0: fb04 844c 9071 343f 0e96 a795 a7b3 2b3f
00000500: 8d0d 40f0 8d61 1d3f 4689 36d8 a5b4 1ebf
00000510: 40bf 93d8 b8e6 3cbf 87cd 7faa ebe7 35bf
00000520: 925a 83d6 6645 493f 96be a204 894d fd3e
00000530: 2456 a306 3d58 2bbf 1654 15b4 c111 26bf
00000540: 2351 abb3 be75 f9be 5b70 4612 f43a fa3e
00000550: b995 b032 4e26 30bf c910 87c9 fd06 4bbf
00000560: 4140 4aa5 1a56 4bbf 9ce1 a240 20f7 34bf
00000570: 06f8 1b6b f863 47bf 46d7 77cb b603 55bf
00000580: 4d22 c9cb 2fa1 443f 1aa2 8245 9f78 48bf
00000590: 71b7 f68f 85e4 30bf 98f1 86d9 d860 4e3f
000005a0: 0a8b a0d6 85fe 253f 2486 91ed be80 453f
000005b0: cc2f ad8e 8585 533f 7399 fce5 1a36 483f
000005c0: bbb2 7058 fcdc 393f f640 4dac fe9a 37bf
000005d0: a325 483a 76ff 10bf 852b 2ff8 54da 043f
000005e0: cb7d cfdc e1e9 4e3f 61e5 e1df 1a12 f43e
000005f0: b6a6 4648 4252 46bf 9d33 9c99 fff3 fd3e
00000600: 82e8 355f b2a8 3dbf 6f40 d659 81de 533f
00000610: c926 fa6c 8be8 523f 8f39 f71f 547a 553f
00000620: 03bd 9322 f203 453f e8f9 3329 1209 4d3f
00000630: a165 9cca 4b55 513f 4f5d 15cf f291 523f
00000640: 7311 0a83 c1ec 3dbf 972e d32b 3a09 45bf
00000650: a5c0 9a2c b15b 453f 62e0 2516 93be b3be
00000660: 17f6 1fbf f5c7 22bf fc40 cda6 ab00 393f
00000670: 1642 6c09 414d 26bf d0a3 2eed 259f 283f
00000680: 286b 8d8d 5cca 383f dd65 e5c7 c1bd 28bf
00000690: 820b b070 58a1 303f 77ec 3d6d e05e 44bf
000006a0: d4db 3afd 032d 343f 33bc 75b5 3035 313f
000006b0: 3c45 bdec 4e84 26bf ee97 08b7 beb9 3abf
000006c0: 4698 851f a015 423f d382 c2a7 0555 41bf
000006d0: c63c 51e5 794f 523f 284f 6f78 c713 573f
000006e0: a3fb ff1b 896e 4a3f 6919 4717 2e31 393f
000006f0: 890b 5144 fd28 553f 30bf 4bba 8796 553f
00000700: 0495 83d1 efc0 633f 255a 782d 9bbf 723f
00000710: 8e6b 5864 586f 7d3f 0871 3466 9f58 903f
00000720: 239b d878 5da5 973f 2973 d7e6 b350 973f
00000730: 9241 a5a3 4363 943f 4978 586e 8647 883f
00000740: 5c28 15c5 4ff1 433f 933d 426d a9d0 85bf
00000750: ed54 307b 8480 92bf 06e5 36a9 d321 96bf
00000760: c0e0 1aeb 563b 92bf 30fe a78d fb94 8dbf
00000770: 178a 764c f52e 82bf 535b 49ba 83fa 7cbf
00000780: 9a04 ab9d abc3 75bf 4737 c2a0 06ed 6bbf
00000790: 5a7d b131 105d 58bf fb91 a016 b8f1 60bf
000007a0: 931a cb69 f5a0 52bf 5ff0 60be 5b7e 38bf
000007b0: 1dda 892f e62c 43bf 4946 fb65 9948 49bf
000007c0: 2a70 e48e 5949 e53f b915 f0d3 a262 e53f
000007d0: 7550 c4eb 7532 e53f 41fa fe9b d52a e53f
000007e0: a08b 1de1 7dfe e43f 96af 67ac 48e6 e43f
000007f0: e436 7c68 67b1 e43f ead0 1121 bf36 e43f
0.7299005243314608 0.7278800494494683 0.729806467185124 0.72398906285005 0.7153702514613414 0.7114404852434554 0.7014895601197381 0.6900525157153529
0.6655910809921523 0.6330270737164474 0.5838633001911003 0.5047693707998743 0.4148973456093344 0.32509265328500453 0.25071554168679616 0.21578592979429273
0.2404405723444069 0.34048454065279143 0.47650218110311304 0.5717315894697917 0.6223040666339354 0.6634716109926592 0.6812107192348292 0.6998993870155328
0.7083204744700616 0.7182639628813807 0.7143369196786757 0.7230537162502875 0.7235198508770397 0.7288813132212943 0.7253459034856761 -0.00012236179739962244
0.0002317338378327254 -0.00152852328741924 0.0006027265437908615 -0.0006970469646691367 -0.0013176876951999366 3.8882576349314226e-05 0.0005771472837253207 7.549714403494192e-05
-0.0008182885365227766 0.000235227565415408 -0.0011244717323775908 -0.0014201514217969885 -0.00028819378520775516 -0.0001011277788480299 0.0002030722547752457 -0.0007601767652687312
-0.0003492086950135891 0.0005595415546619622 -7.100725480386138e-05 -0.0006525421164222143 0.0008547877198011757 -0.00012126003731410751 -0.0006829172649914965 0.0015758081375413413
-0.0005022009760965331 -0.0007012714205510616 0.0020683447733670915 0.0002582567824859229 0.0008239247397536806 -0.0018506080316309436 -0.0006621764824500154 0.0006972186719547901
0.0015351548092345363 0.0003707903712192716 -0.0009124330877958006 0.0007585816568867878 -0.000908312486881951 0.0011271539619450207 0.000826349988230089 0.0009892044501777168
0.0005044387238056603 0.0002478269780994824 0.0009411716700410493 0.0014308337607872857 -0.00027372082517851425 -0.00034721800984912786 0.000921439573209599 -7.622438781804061e-05
-0.0002365280092327518 -6.741581358045697e-05 -0.0006749851551315409 -0.0010986994174707568 -0.0002229554395752653 -0.000542335423015678 0.00010970727355321082 -0.0006382741933794719
0.0008738372838567484 0.0009747720598187029 6.460697935866553e-05 -0.00029584543732324753 0.0011400925384027942 0.0006499942249504348 0.000791636926819475 0.001049224001280629
0.0005137243535932798 -0.0008545194867400547 0.0013983263509163015 -0.00021821662360734263 0.0004884117507405518 0.00039427682552571776 -0.0009973465550737629 2.6677176427322715e-05
0.0010920632912201486 0.000392523849979912 0.0015336965784959156 0.0009441762803670654 -0.0005667318685041488 -0.0015739199556875317 -0.0020284607216705637 -0.0014881521923135774
-0.0005858368253380839 -0.0008150972545713378 7.907423713766098e-05 -0.0006529305608892621 -0.0016792636484505438 -0.0028019246818446427 0.000281003149699217 -0.0005899684547236342
0.00030092748451970966 -0.000916869690265718 -0.0007840968657821073 -0.000282851068088362 0.7096363989046741 0.7093717398998987 0.7065738681239088 0.7041882953250453
0.6945328853270367 0.6908568648025472 0.6810885323916388 0.666409546633214 0.6417606834863344 0.6057895293856042 0.5518733922473394 0.47315174104423025
0.39049225596853315 0.3142718841406255 0.2632200506596776 0.24077845919974808 0.2720085948266618 0.35264940885314716 0.4608731551699548 0.542586230923819
0.591654444509731 0.6346393026135162 0.6521888047309355 0.6737566535038356 0.6839281641632478 0.6968087729370858 0.6948043494821119 0.7017549221850352
0.7056576040031541 0.7064841098570155 0.704758841135307 -0.0015873234575143431 -0.0004782401402134983 -0.0004835935156020148 0.00031194470331292996 0.00021134777746494065
0.00011207989524568956 -0.0001171327804088451 -0.0004409981998625308 -0.0003342581135250201 0.0007712127817523665 2.7945396404659312e-05 -0.00020862336106712662 -0.00016837586921761354
-2.4280491951981662e-05 2.5015150770011127e-05 -0.00024642380839376036 -0.0008248080439945622 -0.0008342390161306738 -0.0003199056378764499 -0.0007138216953703764 -0.0012826237779086243
0.0006295665148821711 -0.0007468011563292493 -0.0002577615814186507 0.0009270724140644669 0.00016780265588164255 0.0006562168374665872 0.0011915020247270534 0.0007388717021726124
0.0003946415021712048 -0.0003601905594239474 -6.484183411017154e-05 3.97736721634212e-05 0.00094340828365696 1.914093262953465e-05 -0.0006811927456073705 2.856552018841754e-05
-0.0004525599935828532 0.0012127173607474858 0.001154075773146012 0.0013109036952872776 0.0006413395214205645 0.0008860911060820072 0.0010579338217609829 0.0011334296398980042
-0.0004566166344732926 -0.0006419691123027035 0.0006517996891570911 -1.1768598474331606e-06 -0.00014328837238501764 0.00038150969230789345 -0.00017014902979230255 0.0001878484532345224
0.00037827262490501773 -0.00018876066674060237 0.00025375756439432334 -0.0006216617425559696 0.0003078589190680912 0.0002625698011433114 -0.00017178977429436494 -0.0004077997791988021
0.0005518943644744554 -0.0005289342511965673 0.0011175814045321516 0.001408524318084534 0.0008066338996285293 0.00038440108553707567 0.0012915108975597187 0.0013176274744032927
0.0024113353684805956 0.004577261126107267 0.007186265259884984 0.015963068593110058 0.023091755390988965 0.022768794025853332 0.019909912932520486 0.011855173342208885
0.0006086005688896823 -0.010651897093594076 -0.018068380373809246 -0.021613414004353813 -0.017804487323446194 -0.014444318066124756 -0.008878628154723107 -0.007074846802956741
-0.005313558935712193 -0.003408921189538203 -0.0014870317598008804 -0.0020683856464691597 -0.0011370083440610842 -0.0003737424834786614 -0.0005851863816833145 -0.0007715939536529572
0.6652038374772975 0.6682905330096026 0.6624097447224943 0.6614788100049013 0.6560658833299051 0.6531108252797704 0.6466557541586693 0.6316829343691357
